…
                    name='output')(dropout_2)
    return Model(inp_1, softmax)

model = create_model()

optimizer = optimizers.Adam(lr=0.001, beta_1=0.9, beta_2=0.999, epsilon=1e-08, decay=0.0)

model.compile(loss=keras.losses.categorical_crossentropy,
              optimizer=optimizer,
              metrics=[keras.metrics.categorical_accuracy, fmeasure, precision, recall])


'''
_________________________________________________________________
Layer (type)                 Output Shape              Param #   
=================================================================
input_1 (InputLayer)         (None, 64, 160, 1)        0         
_________________________________________________________________
conv_1 (Conv2D)              (None, 64, 160, 96)       2496      
_________________________________________________________________
batch_normalization_1 (Batch (None, 64, 160, 96)       384       
_________________________________________________________________
max_pool1 (MaxPooling2D)     (None, 32, 80, 96)        0         
_________________________________________________________________
conv_2 (Conv2D)              (None, 32, 80, 256)       614656    
_________________________________________________________________
batch_normalization_2 (Batch (None, 32, 80, 256)       1024      
_________________________________________________________________
max_pool2 (MaxPooling2D)     (None, 16, 40, 256)       0         
_________________________________________________________________
conv_3 (Conv2D)              (None, 16, 40, 384)       885120    
_________________________________________________________________
batch_normalization_3 (Batch (None, 16, 40, 384)       1536      
_________________________________________________________________
max_pool_3 (MaxPooling2D)    (None, 8, 20, 384)        0         
_________________________________________________________________
rwmp (MaxPooling2D)          (None, 8, 1, 384)         0         
_________________________________________________________________
flatten1 (Flatten)           (None, 3072)              0         
_________________________________________________________________
dense_1 (Dense)              (None, 64)                196672    
_________________________________________________________________
dropout_1 (Dropout)          (None, 64)                0         
_________________________________________________________________
dense_2 (Dense)              (None, 64)                4160      
_________________________________________________________________
dropout_2 (Dropout)          (None, 64)                0         
_________________________________________________________________
output (Dense)               (None, 7)                 455       
=================================================================
Total params: 1,706,503
Trainable params: 1,705,031
Non-trainable params: 1,472
'''
Интерес представляет слой RWMP, который по сути является построчным Max Pooling. Если верить DeepPano, это нужно, чтобы сгладить эффекты от ошибок препроцессинга при нормализации ориентации тел. Конкретнее — для компенсации ошибок при повороте тел вокруг Главной оси.
…
